Overriding model.yaml nc=80 with nc=12

                 from  n    params  module                                  arguments
  0                -1  1      9536  models.common.Conv_1                    [3, 64, 7, 2]
  1                -1  1     78208  models.common.BasicBlock_2              [64, 64, 3, 2]
  2                -1  1     73984  models.common.BasicBlock_2              [64, 64, 3, 1]
  3                -1  1    230144  models.common.BasicBlock_2              [64, 128, 3, 2]
  4                -1  1    295424  models.common.BasicBlock_2              [128, 128, 3, 1]
  5                -1  1    919040  models.common.BasicBlock_2              [128, 256, 3, 2]
  6                -1  1   1180672  models.common.BasicBlock_2              [256, 256, 3, 1]
  7                -1  1   3673088  models.common.BasicBlock_2              [256, 512, 3, 2]
  8                -1  1   4720640  models.common.BasicBlock_2              [512, 512, 3, 1]
  9                -1  1   1902080  models.common.BasicBlock_2              [512, 256, 3, 1]
 10                -1  1   1180672  models.common.Conv                      [256, 512, 3, 1]
 11                -2  1     82688  models.common.BasicBlock_2              [256, 128, 1, 1]
 12                -1  1         0  models.common.Sample                    [None, 2, 'nearest']
 13           [-1, 6]  1         0  models.common.Concat                    [2]
 14                -1  1    885248  models.common.Conv                      [384, 256, 3, 1]
 15          [14, 10]  1     39270  models.yolo.Detect                      [12, [[10, 14, 23, 27, 37, 58], [81, 82, 135, 169, 344, 319]], [256, 512]]
Model Summary: 191 layers, 15270694 parameters, 15270694 gradients, 0.0 GFLOPs

Scaled weight_decay = 0.0005
[34m[1moptimizer:[0m SGD with parameter groups 29 weight, 31 weight (no decay), 31 bias
/content/EMS-YOLO/utils/augmentations.py:31: UserWarning: Argument(s) 'quality_lower' are not valid for transform ImageCompression
…
