Overriding model.yaml nc=80 with nc=12
                 from  n    params  module                                  arguments
  0                -1  1      9536  models.common.Conv_1                    [3, 64, 7, 2]
  1                -1  1     78208  models.common.BasicBlock_2              [64, 64, 3, 2]
  2                -1  1    225920  models.common.Concat_res2               [64, 128, 3, 2]
  3                -1  1    902400  models.common.Concat_res2               [128, 256, 3, 2]
  4                -1  1   3607040  models.common.Concat_res2               [256, 512, 3, 2]
  5                -1  1   7212032  models.common.BasicBlock_1              [512, 256, 1]
  6                -1  1   3673088  models.common.BasicBlock_2              [256, 512, 3, 1]
  7                -2  1     82688  models.common.BasicBlock_2              [256, 128, 1, 1]
  8                -1  1         0  models.common.Sample                    [None, 2, 'nearest']
  9           [-1, 3]  1         0  models.common.Concat                    [2]
 10                -1  1   1574400  models.common.BasicBlock_2              [384, 256, 3, 1]
 11           [10, 6]  1     39270  models.yolo.Detect                      [12, [[10, 14, 23, 27, 37, 58], [81, 82, 135, 169, 344, 319]], [256, 512]]
Traceback (most recent call last):
  File "train.py", line 628, in <module>
    main(opt)
  File "train.py", line 525, in main
    train(opt.hyp, opt, device, callbacks)
  File "train.py", line 123, in train
    model = Model(cfg, ch=3, nc=nc, anchors=hyp.get('anchors')).to(device)  # create
…
